Camera/code/calibration/extrinsics_params.npz (npz, 2550 bytes, 8 tensors)

cam0__cam1_R f8 [3, 3]
0.7162555904218377 -0.13512005303501315 -0.6846316531225239 0.1414890717072372 0.9888172751949729 -0.04713002082975917 0.6833438166669022 -0.06311075616568447
0.7273639121370448
00000000: fe0b 0ed8 90eb e63f 77da 6828 9d4b c1bf
00000010: 0bf7 fea3 80e8 e5bf 77ab dc5b 501c c23f
00000020: ead4 5520 64a4 ef3f 644a 3f14 6d21 a8bf
00000030: e342 10da f3dd e53f ede7 c1c9 0628 b0bf
00000040: 4a6a ddae 9046 e73f

cam0__cam1_T f8 [3, 1]
-51.38773095771124 18.766237580155334 85.23123983834844
00000000: 1e82 032b a1b1 49c0 bcbb 6325 28c4 3240
00000010: 4acf 2da2 cc4e 5540

cam0__cam1_E f8 [3, 3]
0.7645034073163828 -85.46247378251341 17.666834091322574 96.16284021529586 -14.759568205577477 -20.974423602964038 -20.712224928318456 -48.27738108695814
15.26986508782277
00000000: 8057 83d9 cf76 e83f c3c9 a22b 995d 55c0
00000010: 9d16 96a3 b5aa 3140 d6ca 5df9 6b0a 5840
00000020: c612 b41f e684 2dc0 582e 43d3 73f9 34c0
00000030: 1286 765f 54b6 34c0 cf81 3439 8123 48c0
00000040: db0f bdc1 2b8a 2e40

cam0__cam1_F f8 [3, 3]
6.058269709526484e-08 -6.849365149174826e-06 0.0024385903460087833 7.628454724638678e-06 -1.1841551955810775e-06 -0.002946855124464841 -0.0026523632801794326 0.0004800728511938094
1.0
00000000: ae36 1014 3643 703e 5d31 f627 73ba dcbe
00000010: e434 1a39 18fa 633f 8a2e fdaa fdfe df3e
00000020: 9e15 1968 e8dd b3be 640d 57cc 0024 68bf
00000030: 8f96 74b1 68ba 65bf 1b32 1132 4976 3f3f
00000040: 0000 0000 0000 f03f

cam1__cam2_R f8 [3, 3]
0.8458568088011922 -0.0204810342926098 -0.533016684766029 0.001153772576508321 0.9993304981163116 -0.03656807820280376 0.5334087811552272 0.030316377898911596
0.8453141365300744
00000000: 2ccd 5c4c 4211 eb3f f669 e6f1 faf8 94bf
00000010: a35b a901 790e e1bf b084 ebde 45e7 523f
00000020: 22c2 e9f3 83fa ef3f 45cf ea17 0db9 a2bf
00000030: dfbf ce4a af11 e13f 5a9e 6fae 410b 9f3f
00000040: dfc7 673b d00c eb3f

cam1__cam2_T f8 [3, 1]
-38.14941886967557 0.0005620188665112907 -26.348799960613956
00000000: b854 5328 2013 43c0 801b 6153 8e6a 423f
00000010: dbae 47f4 4a59 3ac0

cam1__cam2_E f8 [3, 3]
0.030700308617031942 26.33117642778374 -0.9630498950169051 -1.9380768293720259 1.6962028746394038 46.29259307351366 -0.04449114078647405 -38.123866251153025
1.3953504980508173
00000000: 12f4 f2d5 e66f 9f3f 8a89 76fa c754 3a40
00000010: 6271 7003 4ed1 eebf 909c 74d9 5c02 ffbf
00000020: 9f51 1fa0 a523 fb3f 7ee3 98b0 7325 4740
00000030: 9a7e 47f5 8ac7 a6bf e3e3 6cd9 da0f 43c0
00000040: 815e 390b 5b53 f63f

cam1__cam2_F f8 [3, 3]
1.1034058228723192e-08 9.47377150171925e-06 -0.002431013651757325 -6.963729867531463e-07 6.101109701835989e-07 0.008357252732225344 0.00015561657461122828 -0.011967252221649651
1.0
00000000: 34d5 37a4 09b2 473e 40df 993d 31de e33e
00000010: c175 2c84 34ea 63bf 0be0 7464 cc5d a7be
00000020: fa26 3f36 d078 a43e 8fc1 5a79 9b1d 813f
00000030: 9ff9 8432 a065 243f 0edb 5167 4982 88bf
00000040: 0000 0000 0000 f03f
