Camera/code/calibration/intrinsics_params_720p.npz (npz, 1852 bytes, 6 tensors)

cam0_mtx f8 [3, 3]
0	0x409447598a8e3608	1297.8374426098326
1	0x0000000000000000	0.0
2	0x40817d23200224f7	559.6421508948832
3	0x0000000000000000	0.0
4	0x408e138f2e79c744	962.4449128641068
5	0x40752cd8db6a9844	338.8029436267718
6	0x0000000000000000	0.0
7	0x0000000000000000	0.0
8	0x3ff0000000000000	1.0

cam1_mtx f8 [3, 3]
0	0x408f22cafbf4c44e	996.3491133806617
1	0x0000000000000000	0.0
2	0x408365a509a4459c	620.7055847963088
3	0x0000000000000000	0.0
4	0x408753c3b9ad4f62	746.4705689945079
5	0x40765101dabdd1a6	357.06295274875663
6	0x0000000000000000	0.0
7	0x0000000000000000	0.0
8	0x3ff0000000000000	1.0

cam2_mtx f8 [3, 3]
0	0x40936832c31679dd	1242.0495723258857
1	0x0000000000000000	0.0
2	0x4085c60415ccf688	696.7519947064147
3	0x0000000000000000	0.0
4	0x408d1e62676b03ec	931.7980488167354
5	0x4076cdf232800092	364.8716301918113
6	0x0000000000000000	0.0
7	0x0000000000000000	0.0
8	0x3ff0000000000000	1.0

cam0_dist f8 [1, 5]
0	0xbfd667dec8781be1	-0.3500897367197791
1	0x4017c3af2d5aab47	5.9410979353513715
2	0xbf762b2527ad9f20	-0.00541224015874045
3	0xbfa10c6dc1f4afd3	-0.03329794876694305
4	0xc038e99ccf8511a7	-24.91254899023775

cam1_dist f8 [1, 5]
0	0x3f9a2e2e0d657dd1	0.025566787307409748
1	0x3fe817f954877f30	0.7529265070879543
2	0xbf7f81a49a87819e	-0.0076919965581229415
3	0x3f8b2466f9964d64	0.013253025523943314
4	0xc001d734b53307da	-2.2300810009191823

cam2_dist f8 [1, 5]
0	0x3fa7cd581153a937	0.046488525500381454
1	0xbfe1013ed88526f2	-0.5314020375164701
2	0xbf80f66d3d9d049e	-0.008282521670141482
3	0x3f93169ac33e4676	0.01864091698332123
4	0x3ff7cf8e4cfe59cf	1.4881728179512839
