Camera/code/calibration/intrinsics_params.npz (npz, 1852 bytes, 6 tensors)

cam0_mtx f8 [3, 3]
00000000: 0836 8e8a 5947 8440 0000 0000 0000 0000
00000010: f724 0220 237d 7140 0000 0000 0000 0000
00000020: 2dda fb1e 0a0d 8440 05cb 38cf cb3b 6c40
00000030: 0000 0000 0000 0000 0000 0000 0000 0000
00000040: 0000 0000 0000 f03f
648.9187213049163 0.0 279.8210754474416 0.0 641.6299419094045 225.86862908451454 0.0 0.0
1.0

cam1_mtx f8 [3, 3]
00000000: 4ec4 f4fb ca22 7f40 0000 0000 0000 0000
00000010: 9c45 a409 a565 7340 0000 0000 0000 0000
00000020: 8214 e74c 5a1a 7f40 dd6c 52ce 57c1 6d40
00000030: 0000 0000 0000 0000 0000 0000 0000 0000
00000040: 0000 0000 0000 f03f
498.17455669033086 0.0 310.3527923981544 0.0 497.64704599633853 238.04196849917108 0.0 0.0
1.0

cam2_mtx f8 [3, 3]
00000000: dd79 16c3 3268 8340 0000 0000 0000 0000
00000010: 88f6 cc15 04c6 7540 0000 0000 0000 0000
00000020: 48ad 9cef 9669 8340 6dab aa98 ed67 6e40
00000030: 0000 0000 0000 0000 0000 0000 0000 0000
00000040: 0000 0000 0000 f03f
621.0247861629429 0.0 348.37599735320737 0.0 621.198699211157 243.2477534612075 0.0 0.0
1.0

cam0_dist f8 [1, 5]
00000000: e11b 78c8 de67 d6bf 47ab 5a2d afc3 1740
00000010: 209f ad27 252b 76bf d3af f4c1 6d0c a1bf
00000020: a711 85cf 9ce9 38c0
-0.3500897367197791 5.9410979353513715 -0.00541224015874045 -0.03329794876694305 -24.91254899023775

cam1_dist f8 [1, 5]
00000000: d17d 650d 2e2e 9a3f 307f 8754 f917 e83f
00000010: 9e81 879a a481 7fbf 644d 96f9 6624 8b3f
00000020: da07 33b5 34d7 01c0
0.025566787307409748 0.7529265070879543 -0.0076919965581229415 0.013253025523943314 -2.2300810009191823

cam2_dist f8 [1, 5]
00000000: 37a9 5311 58cd a73f f226 85d8 3e01 e1bf
00000010: 9e04 9d3d 6df6 80bf 7646 3ec3 9a16 933f
00000020: cf59 fe4c 8ecf f73f
0.046488525500381454 -0.5314020375164701 -0.008282521670141482 0.01864091698332123 1.4881728179512839
